…
I decided to use [nVidia Autonomous Car Group model](https://devblogs.nvidia.com/parallelforall/deep-learning-self-driving-cars/) with 5x5 & 3x3 convolution neural network and depths between 24 and 64 (model.py lines 110-119) 

The model includes RELU layers to introduce nonlinearity (code line 110), and the data is normalized in the model using a Keras lambda layer (code line 103). 

Here's a summary of my model:
```
Total Images: 34308
Train samples: 27446
Validation samples: 6862
_________________________________________________________________
Layer (type)                 Output Shape              Param #
=================================================================
lambda_1 (Lambda)            (None, 160, 320, 3)       0
_________________________________________________________________
cropping2d_1 (Cropping2D)    (None, 90, 320, 3)        0
_________________________________________________________________
conv2d_1 (Conv2D)            (None, 43, 158, 24)       1824
_________________________________________________________________
conv2d_2 (Conv2D)            (None, 20, 77, 36)        21636
_________________________________________________________________
conv2d_3 (Conv2D)            (None, 8, 37, 48)         43248
_________________________________________________________________
conv2d_4 (Conv2D)            (None, 6, 35, 64)         27712
_________________________________________________________________
conv2d_5 (Conv2D)            (None, 4, 33, 64)         36928
_________________________________________________________________
flatten_1 (Flatten)          (None, 8448)              0
_________________________________________________________________
dense_1 (Dense)              (None, 100)               844900
_________________________________________________________________
dense_2 (Dense)              (None, 50)                5050
_________________________________________________________________
dense_3 (Dense)              (None, 10)                510
_________________________________________________________________
dense_4 (Dense)              (None, 1)                 11
=================================================================

Total params: 981,819
Trainable params: 981,819
Non-trainable params: 0
```

####2. Attempts to reduce overfitting in the model

I did not use regularization techniques like Dropout or Max pooling for my model. Instead, I used low epochs approach which is 3 epochs. Then, I split my sample data into training and validation data. Using 80% as training and 20% as validation (model.py line 130-132).
…
